2D_Docking/fixed_controller_20n_manhattan.pt (torch, 5749 bytes, 3 tensors)

linear_relu_stack.1.bias f4 [20]
000000 ed 7f ab 3e 23 f5 dc 3e f7 12 9b 3e 28 48 a1 3e
       0.33496037 0.43155774 0.30287907 0.31500363
000010 1b 62 91 3e 81 42 02 3e e9 97 67 3e 61 7f 7a bc
       0.2839516 0.12720682 0.22616543 -0.015289159
000020 c5 aa c2 3d 8b bd 60 3e 22 7c cb 3e b4 4b 38 3e
       0.09505228 0.21947305 0.39743143 0.17997628
000030 0b 11 6d be 5c 70 73 bb 35 28 83 3e c0 f7 c4 bc
       -0.23151033 -0.0037145829 0.25616613 -0.024043918
000040 93 1b 7a 3e c5 b6 32 3e 16 13 bf 3d a7 c9 1c 3e
       0.24424581 0.17452534 0.09329812 0.153113

linear_relu_stack.3.bias f4 [20]
000000 5e f7 b9 3e 0c 64 7c 3e 52 f3 66 3e 44 0a 5b 3e
       0.3632154 0.2464754 0.22553757 0.21390635
000010 21 3b 46 3e c1 c9 2c 3e 27 f0 93 3e f7 1a 30 3e
       0.19358493 0.16873838 0.2889416 0.17197786
000020 86 e7 78 3e 3a 96 31 3e f6 05 87 3e 62 b1 6f 3e
       0.24307069 0.17342463 0.26371735 0.2340751
000030 a6 b4 31 3e cc c0 a7 3e b1 09 7d 3e 89 52 26 3e
       0.17354068 0.3276428 0.24710728 0.16242422
000040 b4 b1 51 3e d9 80 74 3e 72 e3 21 3e 71 a6 00 3e
       0.20477945 0.23877276 0.1580942 0.12563492

linear_relu_stack.5.bias f4 [4]
000000 58 1c 01 3c 06 40 e4 be 4c 29 0e 3c c0 f2 b5 be
       0.007880293 -0.44580096 0.008676838 -0.35536766
